backend/models/encoder_upper.onnx (onnx, 6551 bytes, 9 tensors)

functional_1_1/dense_4_1/Cast/ReadVariableOp:0 f4 [4, 1]
000000 92 b6 9b 3f d9 ef 4c bf 9b be 51 3f ef bd 8f bf
       1.2165091 -0.8005348 0.81931466 -1.1229838

functional_1_1/dense_3_1/Cast/ReadVariableOp:0 f4 [8, 4]
000000 42 c5 e4 3e 54 95 45 3e 00 60 d8 3a 68 ad 84 3e
       0.44681746 0.19295245 0.0016508102 0.25913548
000010 1f fd 1a 3f 12 2b b5 3e 0c 45 df 3e 19 a5 29 3f
       0.6054248 0.35384423 0.43607366 0.66267544
000020 5e a7 d6 be 95 e1 cb 3e 61 fd 02 bf 56 cb f2 3e
       -0.41924566 0.39820543 -0.51167876 0.47420758
000030 8d 75 17 be 83 af 3a be fd c6 a4 3c 07 c3 10 bf
       -0.14790936 -0.18231015 0.020114416 -0.5654759
000040 04 c4 8d be ac 5d 2c 3d c0 f2 0c 3f 64 27 da bd
       -0.2768861 0.04208152 0.5505791 -0.106520444
000050 61 7d 7c 3d e0 79 e2 bd 76 0c 21 3f c6 a2 f0 3e
       0.06164301 -0.11058402 0.6290964 0.46999186
000060 3f c1 e7 be 0d e5 51 be 43 e4 42 3f cd 53 2f bf
       -0.45264623 -0.20497532 0.7612955 -0.68487245
000070 62 a4 48 3f 48 9b 66 bd 11 2a 0e 3f 77 ef d5 bd
       0.7837583 -0.05630043 0.5553294 -0.10446065

functional_1_1/dense_3_1/BiasAdd/ReadVariableOp:0 f4 [4]
000000 30 22 b2 3d b7 06 17 bd 67 33 52 3d f2 16 c5 bb
       0.08697927 -0.03687164 0.051318552 -0.006014698

functional_1_1/dense_2_1/Cast/ReadVariableOp:0 f4 [16, 8]
000000 e0 89 af 3e 37 9f ba 3d 63 dd 9f bc 62 0d ba be
       0.34284878 0.09112399 -0.019514745 -0.36338335
000010 4d e7 4f be 57 78 ad 3e db 98 d7 be cf 08 00 bc
       -0.20303078 0.33880875 -0.42108807 -0.0078146
000020 24 3a dc be 98 ea c7 be 38 32 6b be f9 07 f6 3d
       -0.43013108 -0.39046168 -0.22968376 0.120132394
000030 2a d9 d1 bd 53 21 f3 3e 61 ae 17 3e 4e 08 16 be
       -0.10246499 0.47486362 0.14812614 -0.14651605
000040 20 96 1a bd 1e f7 6d 3d 61 f8 f6 bd 88 2a fb bc
       -0.037740827 0.058096997 -0.12059093 -0.030659929
000050 d0 37 8f bd c4 d6 e6 3e fc 06 b3 be e8 50 89 be
       -0.06993067 0.45085728 -0.34966266 -0.2681954
000060 3c c9 c0 be d6 69 e9 3e 3c 18 a6 3e e8 fb a0 3c
       -0.3765353 0.4558856 0.32440364 0.019651368
000070 46 d3 93 3e c2 41 a2 be a0 a3 b0 3e 2b 58 b5 3e
       0.28872126 -0.31690794 0.34499836 0.3541883
000080 f0 27 f0 be a3 95 68 3e 84 53 1b 3f 48 74 7d 3e
       -0.4690547 0.22713332 0.6067431 0.24751389
000090 72 a9 c6 3d c8 fc e7 3d 02 34 2d be 02 6f 7c be
       0.09700288 0.11327511 -0.1691437 -0.24651721
0000a0 f0 7a a7 3d f7 74 09 3f 07 40 a1 be ee 7d c9 be
       0.08177745 0.536941 -0.3149416 -0.3935389
0000b0 37 79 e6 3d 02 43 82 bd 50 65 86 3b f7 54 8e 3e
       0.11253589 -0.06360437 0.004101433 0.27799198
0000c0 d8 89 7c 3e 44 14 e9 3e 92 5b 04 bf 57 69 cc bd
       0.24661958 0.45523274 -0.51702225 -0.099810295
0000d0 38 c5 3e be 21 56 aa 3d bf 56 3f be ab 2a e0 be
       -0.1862992 0.08317209 -0.18685435 -0.43782553
0000e0 38 f6 66 3e 9c 6b d7 be bb 81 5a 3e c0 de dd 3c
       0.22554862 -0.42074287 0.21338551 0.027083755
0000f0 7c af fc 3e bb b7 3b bd b2 bd 0c 3d f6 5b 1f be
       0.49352634 -0.045829516 0.034360595 -0.15562424
000100 84 19 b0 be e5 40 c0 be 8a 5b dc be 77 2a 89 3d
       -0.34394467 -0.3754951 -0.4303859 0.06697553
000110 95 32 ff 3e ab ee bd bc fa dd b7 3e a7 5d 78 be
       0.4984328 -0.023185095 0.35911542 -0.24254476
000120 40 0d 43 be 3e d2 d9 be 97 b5 8d be 57 2a a3 3e
       -0.19048023 -0.42543215 -0.27677605 0.3186824
000130 a8 3b 38 3d 64 76 ae bc 9b 1c 91 3e dc 73 f4 3e
       0.044978768 -0.021296687 0.28342137 0.47744644
000140 20 ba 41 3e 20 b5 52 3e 10 21 46 be 1c 0d c0 be
       0.18918657 0.20576906 -0.1934855 -0.37510002
000150 c0 06 ae 3c 30 37 89 3e 00 57 ec bc 5c bf e7 be
       0.021243453 0.26799917 -0.028850079 -0.45263183
000160 f8 2c 92 be a0 17 9a 3b 59 86 ab be 3f 39 db bd
       -0.28549933 0.0047025234 -0.33500937 -0.10704278
000170 cb 60 87 bd 40 29 be be 78 84 4f 3d 43 46 93 be
       -0.06610259 -0.37140846 0.05066344 -0.28764543
000180 44 f2 da be 45 a8 e1 3e 32 4a 01 3f 62 a8 6c be
       -0.4276296 0.44073692 0.5050384 -0.23111108
000190 79 25 8b 3e 06 e6 02 bf 71 4e 6a bc a3 2f f7 bd
       0.27177027 -0.5113224 -0.014300928 -0.12069633
0001a0 00 59 83 3e 2e 81 19 3d 38 1e ef be 8f db 22 bd
       0.2565384 0.03747671 -0.46702743 -0.03976017
0001b0 f0 80 be bc 55 28 5d be 02 2f 18 be 6b d4 0d 3f
       -0.023254842 -0.21597417 -0.14861682 0.5540225
0001c0 f0 bb 21 be 4b d0 a5 be 58 59 17 be ec 50 01 3f
       -0.15794349 -0.32385477 -0.14780176 0.505141
0001d0 9c 8a 28 3e 72 b0 2e 3e 1f 1a 8b be 7b 71 22 be
       0.16459125 0.17059496 -0.27168366 -0.15863602
0001e0 fc 79 c9 be f0 4a d6 bd 88 be 39 3e 8f 83 b3 3e
       -0.3935088 -0.10463512 0.18139088 0.3506131
0001f0 6d a5 15 3e 40 da b6 bd fc c1 8a 3e 60 69 8e 3e
       0.14613886 -0.08928347 0.27101123 0.2781477

functional_1_1/dense_2_1/BiasAdd/ReadVariableOp:0 f4 [8]
000000 00 00 00 00 82 18 a5 3d e4 74 a3 bb 40 d3 8d bc
       0.0 0.08061315 -0.0049882997 -0.017312646
000010 13 bf 14 bb f5 bf a8 bc ad 54 7c 3d e5 32 a7 3d
       -0.0022696897 -0.020599345 0.06160419 0.08164004

functional_1_1/dense_1_2/Cast/ReadVariableOp:0 f4 [32, 16]
000000 59 d5 c5 3e 9b a8 a6 bc 64 35 3a 3e d1 7d 8c 3e
       0.38639334 -0.02034407 0.1818443 0.2743974
000010 5b ec bd 3e 02 c3 a0 be 5b e1 00 3e 50 2e 00 3c
       0.37094387 -0.3139878 0.12585966 0.007823542
000020 4b 75 a9 be c6 11 29 be 07 fd 47 be b0 10 88 bc
       -0.330973 -0.16510686 -0.19530116 -0.01660952
000030 88 d7 54 3e a2 be 84 3d b1 da c2 bc d1 23 a7 be
       0.20785344 0.06481673 -0.02378592 -0.32644513
000040 9a 5b 71 3e 26 73 6b 3e c6 3a 8f be be 89 34 3e
       0.235701 0.22993144 -0.27974528 0.1763067
000050 c6 48 89 3e 11 a1 a1 3e 80 d2 0f 3d d0 7b a3 3e
       0.26813334 0.31568196 0.035112858 0.319304
000060 41 d4 35 3e 7b cd 9c 3e 80 62 c8 bc e4 91 5c be
       0.1775675 0.3062552 -0.024461031 -0.21540028
000070 31 8e 41 3e 20 e5 20 3c 60 a0 47 be 00 fc 07 3d
       0.18901898 0.009820253 -0.19494772 0.03319931
000080 f5 6b 64 3e d4 cf 44 3e 06 0b 7d be 6e bb 5b be
       0.22306807 0.19219905 -0.24711236 -0.21458218
000090 11 77 c7 be de 37 75 be b0 46 87 be 95 2c d8 bd
       -0.38958028 -0.23947093 -0.26421118 -0.10555378
0000a0 37 7b 83 bd 6f a0 d4 3e c0 ca 88 3b 14 7e 41 3e
       -0.06419986 0.4152865 0.0041745603 0.18895751
0000b0 5e 38 c7 3d 65 8e db 3e 19 d4 b2 be 7c 4f 40 be
       0.09727548 0.42882076 -0.34927443 -0.18780321
0000c0 5d ae 43 be 5f 0c 28 be e3 63 30 3e cb 28 80 3e
       -0.19109483 -0.16410969 0.17225604 0.25031123
0000d0 3f 71 9f 3e 27 db 55 3d 8f 92 85 3e 24 f9 53 3e
       0.31141087 0.052210953 0.26088378 0.20700508
0000e0 78 46 34 3d 43 db b7 3e 04 ff 84 3d 9b aa 33 be
       0.044012517 0.3590947 0.06493953 -0.1754555
0000f0 b3 24 5b 3e 21 83 a1 bd e3 87 6d be b8 d8 56 bd
       0.21400718 -0.07886339 -0.23196368 -0.052452773
000100 6f 31 05 3e c2 e5 00 3e f0 77 ff 3c 6f f0 55 bd
       0.13007139 0.12587646 0.03118512 -0.05223125
000110 1a 17 9c 3e 08 c5 59 be a2 1d c1 3e 95 2c 66 3d
       0.30486375 -0.21266568 0.3771792 0.05619486
000120 67 c4 8a be c5 ec d8 bc 0e a1 21 3e c2 1e 94 3e
       -0.27102968 -0.026480088 0.15784094 0.28929716
000130 f5 ea c3 3e 51 2a 8b be f1 bf bd bb 89 64 ae be
       0.38265195 -0.27180722 -0.0057907035 -0.34061077
000140 3d de 40 3e 36 03 45 bd b1 88 73 3e f0 c9 c9 3e
       0.18834777 -0.048098765 0.23782612 0.3941188
000150 24 5b 99 3e 96 95 07 be 24 3b 62 be 25 2d 04 3e
       0.29952347 -0.13240656 -0.22092873 0.12907846
000160 1b 95 05 3d 52 7b 4c be 3a ea 85 be e7 7c 59 3e
       0.0326129 -0.19968918 -0.26155263 0.21239053
000170 93 a2 56 be 84 a4 97 3e 17 9f a7 bd 20 81 a0 be
       -0.20960455 0.29617703 -0.08184641 -0.31348515
000180 e4 6d 15 3e 4b 6d dd bd 73 29 d0 3d c8 87 7c 3e
       0.14592701 -0.108118616 0.10164156 0.24661171
000190 2f 8b 00 3e d3 c7 5f be be 9c c9 3d b5 93 b9 bc
       0.12553094 -0.2185357 0.09844349 -0.02265344
0001a0 ac 4d b0 3e ed da 16 be 90 02 a6 be 85 be 35 be
       0.3443426 -0.14731951 -0.3242383 -0.17748459
0001b0 17 40 1b 3d 13 2b 8a be a1 80 96 be 4d 3f 0c be
       0.037902918 -0.26985988 -0.2939501 -0.13696022
0001c0 15 e4 c1 bc ad 74 a3 3e ed 1a b3 be 13 c2 94 3e
       -0.023668328 0.31924954 -0.3498148 0.29054317
0001d0 6a ed 87 be 1d b7 1f 3e ed a9 24 3d eb d5 40 be
       -0.2654832 0.15597196 0.040201116 -0.18831603
0001e0 2c 74 7c 3e 12 ec b4 bd 10 d7 75 bd 54 4d 33 be
       0.24653691 -0.08834089 -0.060019553 -0.17509967
0001f0 75 5c a4 3e fc 0c 93 be dd 0e ca 3c b4 71 af 3d
       0.3210179 -0.28720844 0.02466529 0.08566609
000200 cf 93 3c be e8 f9 f2 bd 23 18 c1 bd 2a 7c 53 bc
       -0.1841576 -0.11864072 -0.09428432 -0.012908021
000210 b8 a1 0b be 59 8d 4f 3e 41 a0 79 3d b3 70 3b bd
       -0.1363591 0.20268764 0.060943846 -0.045761775
000220 1f 6e 57 be 20 5a 8c be 48 e7 82 be 7b 08 d4 bd
       -0.21038102 -0.2741251 -0.2556708 -0.1035318
000230 d6 c3 47 3d c7 1e a6 3e 38 f0 08 be d8 cb 3e bd
       0.048770748 0.32445356 -0.13372886 -0.04658112
000240 57 ad 2f be 1d 1c 20 be 89 5f 2a be 03 c6 43 be
       -0.17155968 -0.15635724 -0.16638006 -0.19118504
000250 6d 19 a6 3e 30 8e 3d 3e 7d 49 00 3e a5 2a 9f be
       0.32441273 0.18511271 0.12528034 -0.31087223
000260 47 75 66 bd 3c 8e 85 3e 5e cf 7c 3e 95 31 82 be
       -0.05626419 0.2608508 0.2468848 -0.25428453
000270 5c 1a cf 3e 7e a8 cd bd eb cc 3c 3e 76 c0 9c 3d
       0.40449798 -0.10041903 0.18437545 0.076538965
000280 fb e3 cc be b0 6b 1b be 74 e2 a3 bd 75 53 26 3e
       -0.40017685 -0.15177798 -0.08002177 0.16242774
000290 b3 cc 5d 3e f4 68 87 3e ba c4 48 be 8b eb 51 3e
       0.21660118 0.2644726 -0.19606295 0.20500009
0002a0 aa 74 9c 3e 8f f4 9c 3e 84 ee a5 3d b6 c3 8e 3d
       0.30557758 0.30655333 0.08102134 0.06970923
0002b0 0b b6 54 3e 67 0f 76 be af f0 d4 3d 00 70 e4 b9
       0.20772569 -0.24029313 0.10397469 -0.00043570995
0002c0 10 c2 b1 bd dd ae 97 3e bc 2f 07 3e fb 3c 07 be
       -0.086795926 0.29625598 0.13201803 -0.13206856
0002d0 da a9 c8 bd fc 38 44 be e4 62 44 3e 50 1a e7 3d
       -0.097980216 -0.19162363 0.19178349 0.112843156
0002e0 ff a3 c2 3d c0 08 55 bd d9 36 13 be 93 18 89 3e
       0.09503936 -0.052010298 -0.14376391 0.2677656
0002f0 e0 24 5e be b6 7c 90 3e cf 5b 5a be a6 c8 2b 3e
       -0.21693754 0.28220147 -0.21324085 0.1677576
000300 10 d7 3f be 93 14 17 3d 62 27 5d be d2 ec c1 3e
       -0.18734384 0.036884855 -0.21597055 0.37875992
000310 eb 73 b1 3e 4d ae 34 3d da 0c ba be 40 4e 6e 3e
       0.3465875 0.04411154 -0.3633793 0.23272038
000320 81 6a 26 3d f8 7f f6 bc 80 89 16 3d 47 d2 f0 3c
       0.040628914 -0.030090317 0.036752224 0.029397143
000330 1e 7a 60 3e 80 d5 54 be 7d a6 49 be c6 e7 8d be
       0.21921584 -0.20784569 -0.19692416 -0.27715892
000340 0c c8 40 3d 98 a2 77 bd f8 8d 90 be de 9f 22 be
       0.04706578 -0.060457796 -0.28233314 -0.15881297
000350 e4 7a b4 3d 5f 55 92 3e d9 81 50 be 50 d0 b0 be
       0.08812502 0.28580758 -0.20362033 -0.3453393
000360 28 68 98 be dc 06 80 be 80 59 d9 3c 6a 50 b0 be
       -0.29766965 -0.25005233 0.026531935 -0.3443635
000370 69 d6 f8 3d 70 83 6b bd 2f 25 fb 3c 64 a0 d8 3d
       0.121502705 -0.057498395 0.030657379 0.10577467
000380 95 73 b2 be 38 df 83 be 79 14 7c be 92 1f 3d 3d
       -0.34853807 -0.2575624 -0.24617185 0.046172686
000390 e6 27 81 be 38 ec e7 3d a8 bd a9 bd 12 25 89 3d
       -0.25225753 0.11324352 -0.08288127 0.06696524
0003a0 d0 b4 3c 3e 85 62 48 3e 73 d8 27 be 49 59 19 3e
       0.1842835 0.19568832 -0.16391163 0.14975466
0003b0 63 f8 16 bd cd b1 fc 3d ff ee 97 bd ac ab 90 be
       -0.036857974 0.123386 -0.07418632 -0.28255975
0003c0 3a 42 90 3e 31 f9 60 3d 4d 05 4b 3d cd ed d3 3e
       0.28175527 0.054925147 0.049565602 0.41392365
0003d0 c4 fd 77 be 78 0f d3 bd bf 25 a2 3e 25 2b 95 be
       -0.24217898 -0.10305685 0.31669423 -0.2913448
0003e0 5c 19 99 be 9e 11 89 be 5c 19 08 be 8a 9a 7c bd
       -0.2990216 -0.26771253 -0.13290924 -0.061670817
0003f0 71 04 d5 3e 5c df 50 be 23 8b 8a 3e b8 19 da 3d
       0.4160495 -0.20397705 0.27059278 0.10649437

functional_1_1/dense_1_2/BiasAdd/ReadVariableOp:0 f4 [16]
000000 17 d8 60 bb 0f 95 08 bd 8f 2c ce bb 5e 51 bf 3d
       -0.0034308487 -0.03334528 -0.006291933 0.093416914
000010 05 b8 35 bc 6a 75 e1 3a 9e e3 9e 3c 99 61 3f bc
       -0.011091237 0.001720113 0.019395646 -0.011680984
000020 37 45 de 3b b6 8a 1a 3d 00 00 00 00 c4 8b 1d bd
       0.0067831534 0.03772994 0.0 -0.03846337
000030 41 43 b7 3b 6b 4c a6 3d 36 ae 1c bd c5 c0 07 bc
       0.005592734 0.08120044 -0.038252078 -0.008285706

functional_1_1/dense_1/Cast/ReadVariableOp:0 f4 [7, 32]
000000 c2 a5 a2 3e c5 d4 e5 3d a8 77 3b be 19 26 ab 3e
       0.31767088 0.11222223 -0.18307364 0.33427504
000010 96 39 a9 be 81 47 08 3e 21 78 c0 3e 30 ae 8d be
       -0.33051747 0.13308527 0.3759165 -0.27671957
000020 d4 3c 38 3d 28 c1 2b 3e 01 35 a4 be 3f 15 93 bd
       0.044979885 0.16772902 -0.3207169 -0.07181787
000030 76 cb cf 3e 9b f8 51 3c f6 43 30 bd ec dc 70 3e
       0.40584916 0.01281562 -0.043033563 0.23521775
000040 1a bd bf be 40 df ae be 3b 9c 41 3d 20 72 b2 be
       -0.3744896 -0.341547 0.047268134 -0.34852695
000050 02 2d b3 be 65 d2 71 3e 58 23 c6 3e 72 f7 8a be
       -0.34995276 0.23615415 0.3869884 -0.2714191
000060 91 34 87 3e d4 c9 91 be b9 2d 83 bd ff d1 92 3d
       0.26407292 -0.28474295 -0.06405205 0.0716896
000070 bc 39 4b 3c b3 c5 68 be 5c b6 b1 be c1 99 b4 3e
       0.012403902 -0.22731666 -0.34709442 0.35273555
000080 cd 2f a7 be 5d f2 a5 bd 41 c6 2d be 2d db 89 be
       -0.32653657 -0.08102868 -0.16970159 -0.2692503
000090 96 cf 33 3e db bf 7e be 41 8b 9d 3d ca 28 9b 3d
       0.17559657 -0.24877875 0.07692576 0.07576139
0000a0 05 09 c8 be 20 0d d6 bd 1d 05 23 be cf 13 53 bd
       -0.3906938 -0.10451722 -0.1591992 -0.051532563
0000b0 cf 1c aa 3e eb 30 b3 bd 02 1e c5 3c 34 c1 71 be
       0.33225104 -0.08749565 0.02406216 -0.23608857
0000c0 4e 86 a4 be 0b 6f 4d 3e ec e4 4f 3d e9 c8 72 3c
       -0.32133716 0.20061891 0.050755426 0.0148184085
0000d0 42 e4 bd be 88 4f 94 be 1e 61 6f 3e 9e ba a7 3e
       -0.3708821 -0.28966928 0.23376891 0.32759565
0000e0 db c9 b1 bd 18 fa 04 be 7f 55 be be b2 9a b3 be
       -0.08681079 -0.12986028 -0.37174603 -0.3507896
0000f0 4f 52 43 3e 6c e5 7f 3e f9 e1 dd bd 9c 28 50 3e
       0.19074367 0.24989861 -0.108341165 0.20327991
000100 36 74 58 be 72 25 69 3e 4a 32 19 be 36 a9 7b bd
       -0.21138081 0.2276819 -0.1496059 -0.06144067
000110 c2 c6 7e 3e be 85 53 3e b2 54 15 3e 6b e3 b5 3e
       0.24880508 0.20656487 0.1458309 0.3552507
000120 fc c1 90 3e 68 cc 5d be a5 7a 0a 3e 97 d3 a9 be
       0.28272998 -0.21660006 0.13523348 -0.33169243
000130 89 34 a3 3e 14 06 08 3e e5 31 a4 3d 65 da 8a be
       0.3187602 0.13283569 0.08017329 -0.27119747
000140 e6 d9 7c be 1b ab b3 3e ad c0 b8 be 2c 0a 1d be
       -0.24692497 0.3509148 -0.360845 -0.15335912
000150 34 0e 6e be 4d ea 4e be f2 92 82 3e 10 d5 70 3e
       -0.23247606 -0.20206566 0.25502735 0.23518777
000160 cc 5d 1d 3e 54 87 54 3c 92 fd d8 3d d8 1b 34 3e
       0.15367812 0.012971718 0.1059524 0.17588747
000170 af 99 5e bd f4 2d 90 be e8 bf 8e 3e d3 40 b3 bd
       -0.054345783 -0.2816006 0.27880788 -0.087525986
000180 fc 5b c2 3e fa a4 cf 3e 59 64 29 be 7c 1e b1 be
       0.37960804 0.40555555 -0.16542186 -0.3459357
000190 02 c3 f9 3e e9 c8 ad 3e 22 06 19 3e 10 9b 84 be
       0.48781592 0.33942345 0.14943746 -0.25899553
0001a0 4b d9 89 be 0d 59 aa 3e 89 0b b4 be 9a 24 ce bd
       -0.26923594 0.33271065 -0.3516505 -0.10065575
0001b0 d4 33 e1 3e 70 ef 50 bd a4 db 84 be 00 58 85 3e
       0.43984854 -0.051009595 -0.25948822 0.260437
0001c0 85 78 cf 3c ad 64 bb 3e 89 20 0b bd b5 89 19 be
       0.025326023 0.36600247 -0.033966575 -0.14993937
0001d0 3d 9c f4 3e 87 0a 92 be a4 d8 8a be 9c 8b 75 be
       0.4777545 -0.28523657 -0.2711841 -0.23979038
0001e0 a6 bb c1 3d 5d 44 a4 be 5c 7d b5 be e5 d8 89 3e
       0.09459619 -0.32083407 -0.35447204 0.2692329
0001f0 e7 44 d0 3e f9 26 20 be 20 71 b1 3e 3d ec 8d be
       0.40677568 -0.15639867 0.3465662 -0.27719298
000200 f5 77 0f 3e 88 ad 94 be c9 5b 8c 3e 5c 2c da bd
       0.14010604 -0.29038644 0.27413777 -0.10652992
000210 42 2e b6 3d 25 8d 11 3e 28 80 36 be 0f c3 b2 be
       0.08895542 0.14213999 -0.17822325 -0.34914443
000220 57 77 c2 bc b1 c4 20 3d 1c bb a1 3e dc 33 5a be
       -0.023738546 0.03925008 0.31588066 -0.21308845
000230 63 ec b0 be f2 9c 81 be 84 d8 13 3d de 9c 8a 3e
       -0.3455535 -0.25315052 0.036095157 0.27072805
000240 58 e9 77 3e 89 ab 0e 3e a8 e1 ed bb fc 6c ca 3e
       0.24210107 0.13932623 -0.0072595663 0.39536273
000250 a5 d5 02 be 96 c4 04 be f5 e6 b6 3d 2d 21 e6 3e
       -0.12776811 -0.12965617 0.0893077 0.44947186
000260 ba eb ad be 6b 0b 97 bd a7 84 4c be de a9 b2 be
       -0.33968908 -0.07375225 -0.19972478 -0.34895223
000270 a7 1c 62 3e e5 f0 4c be 00 24 af 3e c9 c5 93 3e
       0.22081243 -0.20013769 0.34207153 0.28861836
000280 73 59 b7 3c 95 1e 06 3c bc af cc be 51 c2 68 3e
       0.02238152 0.008186002 -0.39977825 0.22730376
000290 da 64 b7 3e 24 7f ee be 5e 1b 3c 3e ad 5c cc bd
       0.3581913 -0.46581376 0.18369815 -0.09978614
0002a0 b9 6c 6d 3e 2b de 75 be ad fd 3d be 02 72 09 3e
       0.23186006 -0.24010532 -0.18553801 0.13422397
0002b0 1f 7f b6 bd 44 cb 98 bd 7c f0 49 be c9 5d b5 3e
       -0.08910965 -0.07460645 -0.19720644 0.35423115
0002c0 3f 0a dc 3a 42 0b a5 be 03 ee 11 3e 83 78 be be
       0.0016787722 -0.32235152 0.1425095 -0.37201318
0002d0 1a c5 ad bd ae 89 d3 3e 5a b3 b5 be 66 69 cc be
       -0.0848486 0.4131598 -0.35488397 -0.39924163
0002e0 a1 7a 4b be b0 91 48 bd c8 d6 19 bc c3 2e 91 be
       -0.19870998 -0.048967063 -0.009389587 -0.2835599
0002f0 a6 c1 3f be ba b1 3f bd 72 92 8a bd f3 eb a5 be
       -0.18726215 -0.046800353 -0.067662135 -0.32406577
000300 fd e4 76 bc 09 25 8f 3e c6 9b d8 3e 5d ff c8 3e
       -0.0150692435 0.27957943 0.42306346 0.39257327
000310 6a 08 1b be d1 15 80 3d 1d a9 81 3e 12 38 4e 3e
       -0.15139928 0.06254161 0.25324336 0.20138577
000320 a7 58 8c be 20 17 35 bd 4d 81 96 3d 90 4b 31 3e
       -0.27411386 -0.044211507 0.07348881 0.17313981
000330 56 a2 88 be 6c ca 81 be 89 0a cb be 0b 97 00 be
       -0.26686352 -0.25349748 -0.39656475 -0.12557618
000340 75 d5 5a bd dd 46 ad 3e 49 45 f8 ba ee f3 ab be
       -0.053426225 0.33843127 -0.0018941547 -0.3358454
000350 76 40 ab be 09 2f 73 3e 0a 05 6d be 50 8e 55 be
       -0.33447617 0.23748411 -0.23146453 -0.20855069
000360 04 d0 2e 3e 91 cb 75 be d8 78 5a 3e c6 66 21 be
       0.17071539 -0.24003436 0.2133516 -0.15761861
000370 b4 fb 89 bd 38 8e 72 be 42 3a 8c 3e b2 7f ac be
       -0.06737462 -0.23687065 0.27388197 -0.33691174

functional_1_1/dense_1/BiasAdd/ReadVariableOp:0 f4 [32]
000000 df 85 35 3d 56 b6 16 3d 7d f3 93 3d 11 f8 bf 3a
       0.044317123 0.036794983 0.07224176 0.0014646073
000010 76 e2 f6 b9 e5 f0 d9 3d 4e 97 c7 3c af f4 84 3c
       -0.00047089503 0.1064165 0.02436414 0.016229955
000020 d3 e1 0e 3d 55 c0 ae 3a a3 bc 73 bb ca ac b5 bb
       0.03488333 0.0013332466 -0.0037191294 -0.0055442797
000030 3f 39 c1 3c 2e ef 8c 3c 11 fb 84 3c ae c9 1d 3d
       0.023586867 0.017203894 0.016232999 0.038522415
000040 99 4a 43 bb d3 47 cd 3d b2 28 2b 3c 33 ce 09 3c
       -0.0029799102 0.10023465 0.010446714 0.008410978
000050 1f 13 51 bc 41 b0 d5 bc c5 9b ab 3b 0c 61 ae 3d
       -0.0127609065 -0.026085021 0.005237075 0.08514604
000060 b3 97 08 3d 21 3c f5 bb 51 7d b2 3b b8 ab 35 bc
       0.033347797 -0.0074839746 0.005447068 -0.011088304
000070 57 79 23 3d cc 43 01 bc c4 81 f4 3d b7 05 77 bc
       0.03991064 -0.007889699 0.11938813 -0.015077046
