backend/models/encoder_upper.onnx (onnx, 6551 bytes, 9 tensors)

functional_1_1/dense_4_1/Cast/ReadVariableOp:0 f4 [4, 1]
00000000: fa76 963f c8e0 4fbf 113c 503f 669d 94bf
1.1755059 -0.81202364 0.81341654 -1.1610534

functional_1_1/dense_3_1/Cast/ReadVariableOp:0 f4 [8, 4]
00000000: 42c5 e43e 5495 453e 0060 d83a 68ad 843e
00000010: 9f6f 123f 551c a73e 3b3f f03e 2070 2e3f
00000020: 3f05 02bf c7cc d73e 9dfb 07bf 94e0 fb3e
00000030: 8290 75be 7c87 39be cc89 c7b9 04e3 2bbf
00000040: 561c 97be 8134 1dbc 46fb 133f 595c eabd
00000050: 6a19 d63b e31b 12be 47d4 293f c6a2 f03e
00000060: cdbe fbbe 7795 2ebe 7641 3c3f 6827 39bf
00000070: 86ac 433f 975b 07bd 0978 063f 7967 d8bd
0.44681746 0.19295245 0.0016508102 0.25913548 0.5720157 0.32638803 0.4692324 0.6813984
-0.50789255 0.4214842 -0.53118306 0.49194777 -0.23980907 -0.1811809 -0.00038058904 -0.67143273
-0.29513806 -0.009595037 0.5780529 -0.11443395 0.0065337913 -0.1426845 0.66339535 0.46999186
-0.49169007 -0.17049204 0.73537385 -0.72325754 0.76435125 -0.03304633 0.5252691 -0.10566611

functional_1_1/dense_3_1/BiasAdd/ReadVariableOp:0 f4 [4]
00000000: 5435 d73c e6a7 0fbd f79b 5b3d 2234 a7bb
0.026270546 -0.03507223 0.053615537 -0.0051026503

functional_1_1/dense_2_1/Cast/ReadVariableOp:0 f4 [16, 8]
00000000: e089 af3e cb3e 843d 9af5 89bc 4c34 b1be
00000010: 53c7 4abe dd9b bd3e 0ebb c8be e9b5 aa3c
00000020: 243a dcbe 9fa9 bbbe cdcf 66be c909 423e
00000030: 02dc cdbd b7df fb3e 3498 f63d b11d 30be
00000040: 2096 1abd c03b 803d 99bf f7bd f921 f8bc
00000050: e874 8ebd 942c e83e fc06 b3be e850 89be
00000060: 3cc9 c0be b92a d83e b39f a63e d311 cd3c
00000070: 23e2 a03e d4c7 8cbe 1061 ae3e a483 b13e
00000080: f027 f0be f245 513e 6e59 223f f02e 843e
00000090: bd08 bc3d b650 fc3d aa33 3abe 5627 8abe
000000a0: f07a a73d 4013 073f a041 a9be 94c5 c2be
000000b0: 6730 203e ab8b 41bc bae3 e8bd 105a 893e
000000c0: d889 7c3e 4cf8 df3e d7a9 dfbe 042b 8ebd
000000d0: be0e 7cbe fc78 c23d 743f 4dbe 83a0 ebbe
000000e0: 38f6 663e 6cae ffbe da9d 603e b4e0 bf3d
000000f0: 9d76 f03e 785c c1bc 2754 8bbc ea47 47be
00000100: 8419 b0be 2006 dcbe 1273 e6be c161 033e
00000110: ffdd fe3e dc92 e23c 061d 9f3e 501c 86be
00000120: 400d 43be 5ab3 e6be 9094 92be 7293 c63e
00000130: 912e d63c 0a42 1d3b 487b 853e 166d ea3e
00000140: 20ba 413e 20b5 523e 1021 46be 1c0d c0be
00000150: c006 ae3c 3037 893e 0057 ecbc 5cbf e7be
00000160: f82c 92be 268f d73c 8df3 a7be 6a80 0dbe
00000170: 7616 82bd 4029 bebe 38f6 3a3d 3e27 92be
00000180: 44f2 dabe e397 ce3e 0738 063f 6208 70be
00000190: 23e5 8d3e 71fd fabe c9a2 5abc 1751 03be
000001a0: 0059 833e 4989 023d d630 fcbe e8c5 453b
000001b0: eee4 b4bc 6635 eebd e73f 3bbe e8b9 073f
000001c0: f0bb 21be 3ee6 a6be 5111 2abe 3799 0f3f
000001d0: c235 393e 1f8e 573e e0c5 b1be 9411 25be
000001e0: fc79 c9be 4b2f f7bd 88be 393e 75fb c23e
000001f0: 83d8 063e 8a7e d1bd fcc1 8a3e 8459 883e
0.34284878 0.06457289 -0.016840745 -0.34610212 -0.19802599 0.37032977 -0.3920521 0.020838695
-0.43013108 -0.36652848 -0.22540207 0.18949045 -0.10051729 0.49194118 0.12040749 -0.17198826
-0.037740827 0.062613964 -0.12097091 -0.030289637 -0.06955892 0.4534651 -0.34966266 -0.2681954
-0.3765353 0.42220095 0.32543716 0.025032913 0.3142253 -0.27496207 0.34058428 0.34670746
-0.4690547 0.20436838 0.6341771 0.2581706 0.09181354 0.12320082 -0.18183771 -0.26983136
0.08177745 0.5276375 -0.3305788 -0.38041365 0.15643464 -0.011813085 -0.113715604 0.26826525
0.24661958 0.43744123 -0.43684265 -0.06941798 -0.24614999 0.09495732 -0.20043737 -0.46020898
0.22554862 -0.4993776 0.21935216 0.093690306 0.46965495 -0.023603663 -0.0170079 -0.19461027
-0.34394467 -0.42973423 -0.45009667 0.12830259 0.49778745 0.027657919 0.3107683 -0.26193476
-0.19048023 -0.4505871 -0.2862897 0.38784367 0.026145251 0.0023995661 0.2607062 0.4578635
0.18918657 0.20576906 -0.1934855 -0.37510002 0.021243453 0.26799917 -0.028850079 -0.45263183
-0.28549933 0.026313376 -0.32803002 -0.13818517 -0.0635194 -0.37140846 0.04564497 -0.28545564
-0.4276296 0.40350255 0.5242924 -0.23440698 0.2771388 -0.49021485 -0.013344475 -0.12823902
0.2565384 0.031869207 -0.4925601 0.0030177776 -0.022081818 -0.11631279 -0.18286096 0.53018045
-0.15794349 -0.32597536 -0.16608168 0.5609316 0.18086913 0.21050309 -0.3472128 -0.16119987
-0.3935088 -0.12069567 0.18139088 0.3808247 0.1316853 -0.102292135 0.27101123 0.26630795

functional_1_1/dense_2_1/BiasAdd/ReadVariableOp:0 f4 [8]
00000000: 0000 0000 c3dd 563d bd87 32bb a5a6 433d
00000010: 8e22 653c 054c db3b 5973 073d 805b 823d
0.0 0.052457582 -0.002724155 0.047766346 0.013985289 0.006692412 0.03306899 0.063651085

functional_1_1/dense_1_2/Cast/ReadVariableOp:0 f4 [32, 16]
00000000: db06 c33e f996 c1bc dfaf 373e 558a 853e
00000010: 9ae5 c03e 354c a3be f17f cd3d b840 b53c
00000020: a53f a7be 6d6a d2bd 07fd 47be 34e8 24bd
00000030: 079e 5c3e 4e9a 043e 04a6 9cbb d123 a7be
00000040: 2da1 883e 640c 773e 3179 90be a833 4f3e
00000050: bd2d af3e 2e37 a23e 521f d5bc e138 a83e
00000060: f812 423e dda7 9d3e 8062 c8bc 85f5 5cbe
00000070: d47b 7d3e 5477 6e3b 83c0 3dbe 00fc 073d
00000080: d0a5 823e aefa 533e 060b 7dbe f975 6ebe
00000090: 177a c2be eb19 6dbe 5ae7 73be fc90 fcbd
000000a0: d059 d5bd 464c c63e c0ca 883b c60e 433e
000000b0: c849 dd3d ec5d d63e 9015 b1be 1a26 3cbe
000000c0: cba3 62be 4a1e 34be 8ede 2d3e 88f0 813e
000000d0: 8367 b83e 78c4 1c3d 628e 493e 9e2f 773e
000000e0: d851 233d fd79 cd3e 04ff 843d 3152 24be
000000f0: 4d0c 5d3e 15e3 acbd 7392 54be b8d8 56bd
00000100: a6ea 0e3e e094 e13d f077 ff3c d1b6 3439
00000110: 2991 b73e ac88 60be 2ec9 973e 93e0 fd3c
00000120: 1307 99be 0323 efbd 0ea1 213e 1e7f 993e
00000130: f73d dd3e c0cf 92be 6c52 f9bc 8964 aebe
00000140: 48a8 3a3e 7185 11bd 37fd 703e 995a cb3e
00000150: 87a2 b13e 019e 06be 09f9 57be 0aa9 043e
00000160: 90ea 7e3d 4d47 f4bd 3aea 85be 9b44 453e
00000170: 5a25 2dbe e801 ae3e 7174 2dbd 2081 a0be
00000180: 953d 083e 9ece fbbd d81d cb3d a224 6e3e
00000190: 5c49 423e e4e8 5fbe bd9d d63c 1eb7 d53c
000001a0: 198e ac3e 858f 04be 9002 a6be b264 25be
000001b0: df0d a43d 3544 a6be 4101 a5be 4d3f 0cbe
000001c0: c3bd 543d 68d1 ae3e ed1a b3be 6f12 953e
000001d0: 92a0 73be 3b47 263e a9d7 18bd 7bc4 23be
000001e0: 73f2 843e 1609 ebbd 10d7 75bd 544d 33be
000001f0: fae7 ae3e 7e73 90be eebd cc3d f4a9 b73d
00000200: 50bd 50be f73e 09be 2116 c6bd 4432 973c
00000210: e605 9cbd e0a5 523e 2021 c2bb 9b7e d83b
00000220: ac97 40be 775c 92be 48e7 82be 5c36 b2bd
00000230: daf2 dd3d 0fea aa3e 448b b9bd d8cb 3ebd
00000240: 9922 3cbe c2ce 03be 10e2 2cbe 0865 68be
00000250: e963 af3e 8b69 393e dcc9 143e f496 9dbe
00000260: 4144 3abd 9c45 9e3e 5ecf 7c3e 9bff 82be
00000270: 7d17 ca3e b8cb babd d932 573e ca8f a53d
00000280: 791e bfbe 9a3c 1bbe 74e2 a3bd 3715 153e
00000290: 8572 413e f84a 8a3e 357b 48be a58f 533e
000002a0: 32e9 a63e 4d3b 933e 84ee a53d 5b4e 8b3d
000002b0: 6260 553e 8a09 76be 1f70 013e 0070 e4b9
000002c0: d1d0 c2bd c965 b93e f1b4 043e 97c0 47be
000002d0: 240f fabc a851 2bbe 6dbf 1d3e 7f3e 2a3e
000002e0: ce73 ff3d 4dc2 4fbd d936 13be 222c 923e
000002f0: 0aaf 7ebe b97c 583e 8795 b7bd 6235 303e
00000300: 17b6 2ebe 2619 043e b8ab 5fbe 6961 ad3e
00000310: 454c bf3e f4c9 093d 9fdc aebe f580 823e
00000320: e204 543d 8b11 f03b 8089 163d 65ad ed3c
00000330: 4af3 743e ffd4 71be 007a 36be 870e 8bbe
00000340: 0298 8f3d 98a2 77bd 728a 8cbe 62d5 0fbe
00000350: 491a fc3d a1b4 923e 885c 94be 0512 9fbe
00000360: f820 89be 1e87 7cbe 8059 d93c 6a50 b0be
00000370: 550f 173e e8a4 4cbd 3cb7 b43d 64a0 d83d
00000380: ed48 a6be cd1c 31be 4153 7ebe 63b6 133d
00000390: a8a4 87be 273a 053e 17e9 6bbd 5b5b aa3d
000003a0: f8a7 703e d95b 6d3e 73d8 27be fc47 fa3d
000003b0: e5ee cdbd 4bc2 0e3e c212 203d 567f 8ebe
000003c0: 8999 7b3e 5bf1 c13c 0df2 403d b85a d73e
000003d0: e54c 5dbe 4eed dabd 179b 793e d080 96be
000003e0: 7b1e 9bbe 373e 58be 5c19 08be 0d80 84bd
000003f0: 1953 d93e 2b75 3dbe 831b 843e b819 da3d
0.38091168 -0.02363156 0.17938183 0.260821 0.37675172 -0.3189408 0.100341685 0.022125587
-0.32665744 -0.10274205 -0.19530116 -0.04026051 0.21544658 0.12949488 -0.004780533 -0.32644513
0.26685467 0.2412582 -0.28217462 0.20234549 0.34214583 0.31682724 -0.026015911 0.32855895
0.18952549 0.30792132 -0.024461031 -0.21578033 0.24754268 0.0036387043 -0.18530469 0.03319931
0.2551713 0.20701095 -0.24711236 -0.2328719 -0.37983772 -0.23154418 -0.23818722 -0.12332341
-0.10417521 0.38730067 0.0041745603 0.19048604 0.10805088 0.41868532 -0.34586763 -0.1837391
-0.22132795 -0.1758968 0.16979429 0.25378823 0.36016473 0.038273305 0.19683221 0.24139258
0.039872974 0.40132132 0.06493953 -0.16046979 0.21586724 -0.0844175 -0.20758991 -0.052452773
0.13956699 0.11014724 0.03118512 0.00017234242 0.35852936 -0.21927136 0.29645675 0.030990874
-0.2988821 -0.116766 0.15784094 0.29979795 0.43211338 -0.28674126 -0.03043481 -0.34061077
0.18228257 -0.03552765 0.23534094 0.39717558 0.3469431 -0.13146211 -0.21091093 0.12955108
0.062235415 -0.11927662 -0.26155263 0.19264452 -0.1690878 0.3398583 -0.042347375 -0.31348515
0.13304742 -0.122952685 0.099178016 0.23256162 0.18973297 -0.21866184 0.026198262 0.026088294
0.33702162 -0.12945373 -0.3242383 -0.16151693 0.08010458 -0.32473913 -0.3222752 -0.13696022
0.051938783 0.3414414 -0.3498148 0.29115626 -0.23791721 0.1623811 -0.037315045 -0.1599292
0.25966224 -0.114763424 -0.060019553 -0.17509967 0.3416136 -0.28213114 0.09997164 0.08967963
-0.20384717 -0.13402925 -0.096721895 0.018456586 -0.076183125 0.20571089 -0.005924359 0.0066068894
-0.18807858 -0.2858617 -0.2556708 -0.087017745 0.10837336 0.33381698 -0.09059766 -0.04658112
-0.18372573 -0.1287184 -0.16883111 -0.2269479 0.34255913 0.18106668 0.14530128 -0.3077923
-0.04547525 0.30912483 0.2468848 -0.25585636 0.39471045 -0.091208875 0.2101549 0.08084066
-0.37327936 -0.15159836 -0.08002177 0.14558874 0.18891342 0.27010322 -0.1957825 0.20660265
0.3259979 0.2875618 0.08102134 0.068020545 0.20837548 -0.24027076 0.12640427 -0.00043570995
-0.09512485 0.36210468 0.12959649 -0.19507061 -0.030524798 -0.16730368 0.15405054 0.16625403
0.1247326 -0.05072241 -0.14376391 0.28549296 -0.2487146 0.21141328 -0.08964067 0.17207864
-0.1706165 0.12900218 -0.21842849 0.3386338 0.37362877 0.033639863 -0.34152696 0.2548901
0.05176247 0.00732631 0.036752224 0.029013345 0.23920932 -0.23616408 -0.17819977 -0.2715952
0.07011415 -0.060457796 -0.27449375 -0.14046243 0.12309701 0.28653434 -0.28976846 -0.31068435
-0.26782966 -0.24660918 0.026531935 -0.3443635 0.14751942 -0.049961954 0.08824012 0.10577467
-0.32477513 -0.17296143 -0.24836446 0.03606261 -0.2649281 0.13010465 -0.05759534 0.08318206
0.23501575 0.23179568 -0.16391163 0.12220761 -0.10055331 0.13941304 0.03908039 -0.27831525
0.24570288 0.023674658 0.047105838 0.420614 -0.21611364 -0.106897935 0.24375568 -0.2939515
-0.30296692 -0.21117483 -0.13290924 -0.06469736 0.4244621 -0.18501727 0.2580224 0.10649437

functional_1_1/dense_1_2/BiasAdd/ReadVariableOp:0 f4 [16]
00000000: 35fb 56bc 0b97 b33c 4c67 0fbc 04a5 893d
00000010: 04a8 cc3c 52d9 713c 87e4 d7bc 6d61 0a3c
00000020: 0a00 3c3d f5ef 883d 0000 0000 6b30 0bbd
00000030: aeab ecbb 37ec 9f3d 70d7 953d f1a9 7ebb
-0.013121416 0.021922609 -0.008752655 0.06720927 0.02498246 0.014761286 -0.026354088 0.00844608
0.045898475 0.06686393 0.0 -0.03398172 -0.0072226143 0.07808726 0.07316482 -0.0038858617

functional_1_1/dense_1/Cast/ReadVariableOp:0 f4 [7, 32]
00000000: 9d1a 933e 887c ff3d 111b 1ebe 0dfe ab3e
00000010: 569e a3be 6e65 853d ba28 9c3e 3b07 9dbe
00000020: a004 403c bd46 443e bfe0 b0be 29d6 a8bc
00000030: 0440 b63e 1a00 acbb a9ad 42bd 986b 2d3e
00000040: f9d6 c2be cf64 a3be c6ba ac3b 560f c5be
00000050: 36a1 e1be 1f8b 8b3e 64be ce3e e694 8abe
00000060: 1ab5 b43e 3a1a 96be b554 28bd 93d3 5d3d
00000070: 143b 493d 3768 82be c284 aebe d438 c43e
00000080: bb6b acbe 915b 40be 3e1b 0bbe 6932 90be
00000090: fbf3 1b3e 551a 48be 2f4b 873d bfa6 863d
000000a0: 80b3 b6be 8256 7cbd a999 57be 2c58 6abd
000000b0: 2f18 a83e 1348 5dbd 7f84 1ebc 4440 5ebe
000000c0: 2743 a3be a853 553e f5dc 163d 5c21 09ba
000000d0: 7575 e7be c92a 99be cdd4 493e 5614 b53e
000000e0: 8e04 28be f156 e8bd b9f8 dbbe a2d8 bcbe
000000f0: cec6 003e d3f7 8d3e ed67 d0bd cd39 2b3e
00000100: c5e4 37be 3cda 9c3e 0936 44be e5e2 85bd
00000110: 3276 843e 1acf 363e c650 603e b085 ba3e
00000120: 2895 923e 9891 40be a5ae 443e 1bea c3be
00000130: fa16 963e fa17 1f3e caa1 de3d 79dd 53be
00000140: f478 76be 8dff a73e b5d7 8dbe 28be 03be
00000150: b4e4 3abe 9146 90be 2af0 743e 151a 533e
00000160: c079 013e c977 a8ba e0c0 013e 0687 533e
00000170: c0e5 8c3b 2733 9ebe bac3 9f3e 1d36 a8bd
00000180: d19b d43e 0b7b e53e 8211 0cbe 3676 bebe
00000190: fc9f 073f 0154 bb3e 8c8a 3d3e 75f4 93be
000001a0: 612f 63be 04de c03e 30b6 c0be cb04 22be
000001b0: abcc f53e 3c9f b1bb 8e41 88be 2ebd 993e
000001c0: bb46 353d 1e25 d03e c8a7 d3bc 80c3 3ebe
000001d0: ab51 073f e301 97be f6b4 95be c6c6 74be
000001e0: 8e02 cb3d 1a97 a8be 501c d3be 5156 883e
000001f0: 535f de3e 9633 3cbe 8b3c b93e 3e2e 8bbe
00000200: 6334 1a3e 993d aebe ab58 983e a5a6 0bbe
00000210: d56b 8b3d c5d8 133e 537f 2cbe 311c c2be
00000220: 13b0 c13c fe11 f43c e329 993e 908f 8abe
00000230: b75e a4be 908b 54be 28d1 bf3c d2b2 973e
00000240: 29e2 743e 61e9 143e 686f c83b 4061 c93e
00000250: 11bb 5fbe d6aa fabd e32f 633c 1b78 e73e
00000260: 4575 d5be 394f a8bd 87e3 83be 2ce0 bbbe
00000270: 51d7 7c3e 12fc 68be 8cba a93e aadc 903e
00000280: 0922 fb3d 185a f73d 4e01 bebe cddd ac3e
00000290: 504e e73e 479f e3be c9d9 a83e 4207 f9bc
000002a0: 7d84 983e 21a4 58be 9f55 57be 06d6 583d
000002b0: ce4a 84bd 1471 043d 82bc 50be a042 b63e
000002c0: 6591 3c3a bd90 99be f336 8f3e b315 d1be
000002d0: 32f3 64bc 50d2 a53e 9e8e c0be d806 ccbe
000002e0: 654a 8dbe ef1b c3bd 09a0 b3bd 2c69 9abe
000002f0: 40b4 03be cc1c 42be d47d 933c 2a2a a3be
00000300: c741 08bc 5db5 6d3e e0dc d63e b39f ac3e
00000310: 7bd1 0fbe a44f 683d b3bf 693e 27c9 1c3e
00000320: 4f2c 68be 02b3 3fbd a65c 803c 71c2 033e
00000330: c329 78be aee6 54be 9c70 cebe 3e63 e8bd
00000340: b51a 76bd fa72 a73e cc7b 4d3a 0fcd a3be
00000350: 9db3 d9be 97d8 483e f55d 81be 40b9 4fbe
00000360: 8e59 e73d 156d 7ebe fc22 1f3e 81da 21be
00000370: db8e 67bd a54c 87be 8de2 7c3e 67d3 b5be
0.28731242 0.12474924 -0.15440013 0.33592263 -0.31956738 0.06513487 0.30499822 -0.3066958
0.011719853 0.1916761 -0.34546468 -0.020609932 0.35595715 -0.0052490355 -0.047528896 0.16935575
-0.38054636 -0.31912848 0.0052712886 -0.38488263 -0.44068307 0.27254578 0.40379632 -0.27066725
0.3529442 -0.29316884 -0.041096408 0.05415685 0.049128607 -0.25470135 -0.3408566 0.38324606
-0.33675942 -0.1878493 -0.13584611 -0.2816346 0.1522979 -0.19541295 0.06606137 0.06574773
-0.35683823 -0.061605938 -0.2105471 -0.057212994 0.3283095 -0.054023813 -0.009675144 -0.21704203
-0.3188717 0.20832694 0.036831815 -0.0005231106 -0.452068 -0.29915455 0.19710083 0.35367078
-0.16407987 -0.11344708 -0.42963198 -0.36884028 0.12575838 0.27728137 -0.10176072 0.16721268
-0.17958362 0.3063525 -0.19161238 -0.06537417 0.25871426 0.1785244 0.21905813 0.3643012
0.28629422 -0.1880554 0.19207247 -0.38264546 0.29314405 0.1553649 0.108707026 -0.20689954
-0.24069577 0.32812157 -0.27703634 -0.12865508 -0.18251306 -0.28178838 0.2391974 0.20615418
0.126441 -0.0012853082 0.12671232 0.20656976 0.0042998493 -0.308984 0.31204015 -0.08213446
0.41525128 0.44820437 -0.13678554 -0.37199563 0.5297849 0.36587527 0.18509883 -0.28897443
-0.22186042 0.37669384 -0.37638998 -0.15822141 0.48007712 -0.0054205935 -0.26612514 0.30027145
0.044256907 0.40653318 -0.02583684 -0.18629265 0.5285899 -0.29493627 -0.29239625 -0.23903951
0.09912597 -0.3292778 -0.41232538 0.26628354 0.43432102 -0.18379053 0.36179003 -0.27183717
0.15059046 -0.3403137 0.29755148 -0.13637789 0.06807677 0.1443816 -0.16845445 -0.37912133
0.023643529 0.029793736 0.2991477 -0.27062654 -0.32103512 -0.20756364 0.023415163 0.29628617
0.23914398 0.14542152 0.0061167963 0.39332008 -0.21848704 -0.122396156 0.013866398 0.4520882
-0.41691032 -0.082182355 -0.25759527 -0.36694467 0.24691512 -0.22752407 0.33150136 0.28293353
0.12262351 0.12077731 -0.3711037 0.3376297 0.45176935 -0.44457456 0.32978657 -0.030398969
0.2978858 -0.2115636 -0.21028756 0.052938484 -0.0645958 0.032334402 -0.2038441 0.35597706
0.00071932963 -0.2999324 0.2797161 -0.40836868 -0.013973998 0.32387018 -0.37608808 -0.3984897
-0.2759582 -0.09526812 -0.08770759 -0.30158365 -0.12861729 -0.18956298 0.018004335 -0.31868106
-0.008316464 0.23213716 0.4196539 0.3371559 -0.14044754 0.056716576 0.22827034 0.15311109
-0.22673152 -0.046801575 0.015669178 0.12867142 -0.24234681 -0.20791122 -0.4032029 -0.11347054
-0.060084064 0.32704908 0.00078385766 -0.31992385 -0.42519847 0.19613872 -0.25266996 -0.20285511
0.11296378 -0.24846299 0.15540689 -0.15806009 -0.056532722 -0.26425663 0.24695797 -0.3551285

functional_1_1/dense_1/BiasAdd/ReadVariableOp:0 f4 [32]
00000000: d362 973d 909c b13d 5b68 323d 416e e13c
00000010: 7120 3bbc 6c68 ae3d bb19 b53c 5f42 3d3d
00000020: 89db 4cbc dae9 debc 894d ac3c 3fdd 543d
00000030: db61 72ba 9a78 e8bc 545d bb3c 2237 f53b
00000040: a6bb 493b 105c 9f3d dcc4 163b f85c 373d
00000050: b4b4 9f3d aa1b 86bc e291 d83c 24d7 ac3d
00000060: 588a e23d 760b 753a 5cb4 813d 0913 e43b
00000070: 377a 99bc c4ad 9f3c 40b4 e73d 5bb0 a7bc
0.07391896 0.0867244 0.043556552 0.027518393 -0.011421309 0.08516011 0.022106996 0.046205875
-0.012503513 -0.027211118 0.021033065 0.05196881 -0.0009246149 -0.02837782 0.02287165 0.007483379
0.0030782013 0.077812314 0.002300552 0.044766396 0.07798138 -0.016370613 0.02643675 0.08439472
0.11061543 0.0009347716 0.06333229 0.006960277 -0.018735034 0.019492038 0.11313677 -0.020469835
